classifier.tflite (tflite, 8832 bytes, 4 tensors)

sequential_4/dense_9/BiasAdd/ReadVariableOp/resource f4 [10]
0	0x3e1d0355	0.15333302
1	0x3e1a4cdb	0.1506838
2	0x3dbce770	0.09223831
3	0x3bf59f6d	0.0074958117
4	0xbcdbf63d	-0.026850814
5	0xbd92f44b	-0.071755014
6	0xbdf3de80	-0.11907673
7	0xbdf64c7f	-0.12026309
8	0xbe3dc0b4	-0.18530542
9	0x3dad30df	0.08456587

sequential_4/dense_8/BiasAdd/ReadVariableOp/resource f4 [84]
0	0x3d340410	0.043949187
1	0x3def9181	0.116976745
2	0x3d1ee5f7	0.03879353
3	0x3d8d4686	0.06898217
4	0x3e547f51	0.20751692
5	0x3dfe38a2	0.124131456
6	0x3e799342	0.2437258
7	0x3e2c77d2	0.16842583
8	0x3b5e2ad0	0.003390003
9	0x3ae08259	0.001712869
10	0x3e2064d0	0.15663457
11	0xbc8da8d5	-0.01729242
12	0x3d82ce99	0.063870616
13	0x3e3f6631	0.18691327
14	0xbe5270fe	-0.20550916
15	0x3d479782	0.048728473
16	0x3e747f9d	0.23876806
17	0x3e495be4	0.1966396
18	0x3e4e0eb8	0.20122802
19	0x3e313d86	0.17308626
20	0x3e122d7b	0.14275162
21	0x3e691b65	0.22764356
22	0xbd6e18ac	-0.058128998
23	0x3e2985e1	0.16554977
24	0x3e0009f1	0.12503792
25	0x3d491d28	0.04910007
26	0x3db4b4be	0.08823536
27	0x3e439c44	0.1910258
28	0x3e2049b0	0.1565311
29	0x3dbe14ce	0.09281312
30	0x3cb10eb2	0.021613453
31	0x3df3934d	0.1189333
32	0x3e865bc7	0.26241896
33	0x3e8f8072	0.28027683
34	0x3e6f3d3c	0.23363203
35	0x3e4c50da	0.19952717
36	0x3e277cd1	0.16356207
37	0x3d8e7350	0.06955588
38	0x3e1f5973	0.15561466
39	0xbde97422	-0.11399104
40	0xbe88a3e1	-0.2668753
41	0x3e5a4dc1	0.21318723
42	0x3db3a152	0.08771004
43	0x3e75eee1	0.24016906
44	0xbd571cef	-0.052517828
45	0x3e013b39	0.12620248
46	0x3e11f1a6	0.14252338
47	0xbe144198	-0.14478147
48	0x3eae123a	0.3399828
49	0x3ea66312	0.3249746
50	0x3cf85fcf	0.030319123
51	0x3e4fe950	0.20303845
52	0x3dac7694	0.084210545
53	0x3e6ec9b4	0.23319131
54	0x3e92118b	0.2852901
55	0x3e31b3bd	0.17353721
56	0x3e3acc07	0.18241893
57	0x3e803fa8	0.25048566
58	0xbccf32b9	-0.025292741
59	0x3da0fd4f	0.07860815
60	0x3ea69f31	0.32543328
61	0x3e3e4540	0.18581104
62	0x3c309d49	0.010779687
63	0xbb5bd5ed	-0.0033544258
64	0x3ebbe2d1	0.36696485
65	0xbda62104	-0.08111766
66	0xbc28c8ff	-0.010301827
67	0x3deb77c2	0.11497451
68	0x3e3a05fd	0.18166347
69	0x3e524c8b	0.20537011
70	0xbd6483e0	-0.05578983
71	0x3e678bca	0.22611919
72	0xbe5f3966	-0.2179924
73	0xbe4404cc	-0.19142455
74	0x3d4df398	0.050281137
75	0x3e56c230	0.20972514
76	0xbe527a94	-0.20554572
77	0x3e7a5881	0.24447824
78	0xbd60700d	-0.05479436
79	0xbe5b3e2f	-0.2141044
80	0x3c912350	0.017717034
81	0xbe176d08	-0.14787686
82	0x3de0f3c9	0.10983998
83	0x3e268b83	0.16264157

sequential_4/dense_8/MatMul i1 [84, 42] scale=0.007711086 zero_point=0
0	0xf3	-0.10024412
1	0xf9	-0.0539776
2	0xfc	-0.030844344
3	0x67	0.79424185
4	0x09	0.069399774
5	0x4f	0.6091758
6	0x06	0.046266515
7	0x30	0.37013212
8	0x00	0.0
9	0x10	0.123377375
10	0xdd	-0.269888
11	0xf4	-0.09253303
12	0xfa	-0.046266515
13	0xe9	-0.17735498
14	0xf5	-0.08482195
15	0xc9	-0.42410973
16	0x06	0.046266515
17	0x97	-0.809664
18	0xce	-0.38555428
19	0x02	0.015422172
20	0xe8	-0.18506606
21	0xd3	-0.34699887
22	0x0b	0.08482195
23	0xcd	-0.3932654
24	0xe8	-0.18506606
25	0xe0	-0.24675475
26	0xf3	-0.10024412
27	0x10	0.123377375
28	0x0b	0.08482195
29	0x02	0.015422172
30	0xfa	-0.046266515
31	0x0d	0.10024412
32	0x02	0.015422172
33	0x10	0.123377375
34	0xf6	-0.07711086
35	0x10	0.123377375
36	0x29	0.3161545
37	0xf9	-0.0539776
38	0x0b	0.08482195
39	0x33	0.3932654
40	0x12	0.13879955
41	0x08	0.061688688
42	0xf2	-0.1079552
43	0xe8	-0.18506606
44	0x3c	0.46266517
45	0xfb	-0.03855543
46	0x0e	0.1079552
47	0xfe	-0.015422172
48	0x27	0.30073234
49	0x12	0.13879955
50	0x3b	0.45495406
51	0x12	0.13879955
52	0x2d	0.34699887
53	0x08	0.061688688
54	0x21	0.25446585
55	0x08	0.061688688
56	0x07	0.0539776
57	0xeb	-0.16193281
58	0xfd	-0.023133257
59	0xb4	-0.5860425
60	0x06	0.046266515
61	0xff	-0.007711086
62	0xfb	-0.03855543
63	0x03	0.023133257
64	0xef	-0.13108847
65	0x09	0.069399774
66	0xf5	-0.08482195
67	0x0c	0.09253303
68	0x10	0.123377375
69	0xf7	-0.069399774
70	0xf1	-0.11566629
71	0x05	0.03855543
72	0xe1	-0.23904367
73	0x16	0.1696439
74	0xf3	-0.10024412
75	0x14	0.15422171
76	0xfa	-0.046266515
77	0xdf	-0.25446585
78	0xea	-0.1696439
79	0xe8	-0.18506606
80	0x0f	0.11566629
81	0xe5	-0.20819932
82	0x0b	0.08482195
83	0xcd	-0.3932654
84	0x0b	0.08482195
85	0xf8	-0.061688688
86	0x2f	0.36242104
87	0x00	0.0
88	0x18	0.18506606
89	0x27	0.30073234
90	0x2e	0.35470995
91	0x1f	0.23904367
92	0x41	0.5012206
93	0xf3	-0.10024412
94	0x23	0.269888
95	0xd8	-0.30844343
96	0x05	0.03855543
97	0xf1	-0.11566629
98	0xfa	-0.046266515
99	0x1c	0.2159104
100	0x0d	0.10024412
101	0xfe	-0.015422172
102	0xfd	-0.023133257
103	0xf3	-0.10024412
104	0xd6	-0.32386562
105	0x0c	0.09253303
106	0xd0	-0.37013212
107	0x2d	0.34699887
108	0xcb	-0.40868756
109	0x27	0.30073234
110	0xec	-0.15422171
111	0xcb	-0.40868756
112	0x00	0.0
113	0xf4	-0.09253303
114	0xf5	-0.08482195
115	0x08	0.061688688
116	0xec	-0.15422171
117	0x2a	0.32386562
118	0x02	0.015422172
119	0xce	-0.38555428
120	0x06	0.046266515
121	0xd5	-0.3315767
122	0x07	0.0539776
123	0xdd	-0.269888
124	0xe2	-0.23133259
125	0xbc	-0.52435386
126	0x12	0.13879955
127	0x12	0.13879955
128	0xf2	-0.1079552
129	0xd5	-0.3315767
130	0xe4	-0.2159104
131	0xf4	-0.09253303
132	0xe2	-0.23133259
133	0xcc	-0.40097648
134	0xd7	-0.3161545
135	0xf2	-0.1079552
136	0xe6	-0.20048824
137	0xd9	-0.30073234
138	0x19	0.19277714
139	0xe4	-0.2159104
140	0xef	-0.13108847
141	0x0d	0.10024412
142	0xf6	-0.07711086
143	0x14	0.15422171
144	0x17	0.17735498
145	0xee	-0.13879955
146	0x09	0.069399774
147	0xd8	-0.30844343
148	0xfe	-0.015422172
149	0xd0	-0.37013212
150	0x09	0.069399774
151	0xc8	-0.4318208
152	0xfa	-0.046266515
153	0xed	-0.14651063
154	0xfd	-0.023133257
155	0xec	-0.15422171
156	0x0a	0.07711086
157	0xea	-0.1696439
158	0x22	0.26217693
159	0xeb	-0.16193281
160	0xfe	-0.015422172
161	0x1d	0.22362149
162	0xff	-0.007711086
163	0x08	0.061688688
164	0xf0	-0.123377375
165	0x32	0.38555428
166	0xf9	-0.0539776
167	0x2c	0.3392878
168	0xf1	-0.11566629
169	0x13	0.14651063
170	0xf4	-0.09253303
171	0xe1	-0.23904367
172	0xe8	-0.18506606
173	0xe7	-0.19277714
174	0xb4	-0.5860425
175	0xe6	-0.20048824
176	0xb6	-0.57062036
177	0xef	-0.13108847
178	0xda	-0.29302126
179	0xd9	-0.30073234
180	0xf8	-0.061688688
181	0xf1	-0.11566629
182	0x19	0.19277714
183	0xd6	-0.32386562
184	0xfe	-0.015422172
185	0xb8	-0.5551982
186	0xf1	-0.11566629
187	0xdb	-0.28531018
188	0xfc	-0.030844344
189	0x07	0.0539776
190	0x10	0.123377375
191	0x2e	0.35470995
192	0x1f	0.23904367
193	0x25	0.28531018
194	0x21	0.25446585
195	0xec	-0.15422171
196	0x12	0.13879955
197	0xfb	-0.03855543
198	0x0d	0.10024412
199	0x05	0.03855543
200	0x26	0.29302126
201	0x37	0.42410973
202	0x3a	0.44724298
203	0xec	-0.15422171
204	0x17	0.17735498
205	0xf8	-0.061688688
206	0x21	0.25446585
207	0x03	0.023133257
208	0x22	0.26217693
209	0x03	0.023133257
210	0x10	0.123377375
211	0xeb	-0.16193281
212	0xf0	-0.123377375
213	0x2b	0.3315767
214	0xf4	-0.09253303
215	0x26	0.29302126
216	0x0b	0.08482195
217	0x2a	0.32386562
218	0x0f	0.11566629
219	0x06	0.046266515
220	0xf6	-0.07711086
221	0x26	0.29302126
222	0xe7	-0.19277714
223	0x00	0.0
224	0x15	0.16193281
225	0x10	0.123377375
226	0xf1	-0.11566629
227	0x1a	0.20048824
228	0x03	0.023133257
229	0x02	0.015422172
230	0x10	0.123377375
231	0x10	0.123377375
232	0x0c	0.09253303
233	0xfc	-0.030844344
234	0xf3	-0.10024412
235	0x08	0.061688688
236	0x0b	0.08482195
237	0x01	0.007711086
238	0xf3	-0.10024412
239	0xe5	-0.20819932
240	0x10	0.123377375
241	0x14	0.15422171
242	0x01	0.007711086
243	0xec	-0.15422171
244	0xeb	-0.16193281
245	0x08	0.061688688
246	0x05	0.03855543
247	0xf6	-0.07711086
248	0x00	0.0
249	0xe7	-0.19277714
250	0xeb	-0.16193281
251	0xfc	-0.030844344
252	0x17	0.17735498
253	0xfd	-0.023133257
254	0xd2	-0.35470995
255	0x0c	0.09253303

sequential_4/dense_9/MatMul f4 [10, 84]
0	0x3f3715d3	0.71517676
1	0x3e9f7686	0.31145114
2	0xbf134524	-0.57527375
3	0x3d383039	0.044967864
4	0x3ec9425f	0.3930845
5	0x3d271e61	0.040800456
6	0xbed2d248	-0.41176057
7	0xbd30bcad	-0.043148685
8	0xbd877372	-0.06613816
9	0x3e418d74	0.18901616
10	0x3eafdb6f	0.34347102
11	0x3d78b24d	0.060716916
12	0x3e27aa86	0.16373643
13	0x3ed5f9c2	0.41792113
14	0xbdec9ef6	-0.11553757
15	0xbef57b10	-0.47945452
16	0x3eab420c	0.33448827
17	0xbf492636	-0.7857393
18	0x3f09b6e6	0.53794706
19	0x3e88ae5a	0.2669552
20	0xbf7e5fde	-0.9936503
21	0x3dd561af	0.10419022
22	0xbdc41756	-0.095747635
23	0xbede295b	-0.43390927
24	0xbf4bc2ac	-0.7959392
25	0xbeb09274	-0.34486735
26	0xbd493974	-0.049127057
27	0xbea21ff0	-0.3166499
28	0xbe85826f	-0.26076075
29	0xbe53de85	-0.20690353
30	0x3ebcdd1c	0.36887443
31	0x3edadd49	0.42746952
32	0xbe26f210	-0.16303277
33	0x3f0435a9	0.5164438
34	0xbdf008cc	-0.11720428
35	0x3ef36a7c	0.4754218
36	0xbd0ca9a1	-0.03434146
37	0xbf1c6689	-0.61093956
38	0x3d824dab	0.0636247
39	0xbf1a2912	-0.6021892
40	0xbeb90579	-0.36136988
41	0x3ee6afe2	0.45056063
42	0xbd9e86ea	-0.077405766
43	0x3f067850	0.5252733
44	0xbe0cca70	-0.13749099
45	0x3d8215cc	0.06351814
46	0x3dcb7c53	0.09935822
47	0xbf063505	-0.5242465
48	0xbe81d8a2	-0.2536059
49	0xbf4842f2	-0.7822715
50	0xbef98ff1	-0.4874263
51	0x3e1be570	0.15224242
52	0x3ec651e9	0.38734367
53	0xbd9b50ab	-0.075837456
54	0x3f018a62	0.5060178
55	0xbea6cffb	-0.32580552
56	0x3c300f7d	0.01074588
57	0x3ed4424d	0.41456833
58	0xbed73649	-0.42033604
59	0x3eb65f82	0.35619742
60	0x3e630d37	0.2217301
61	0xbf3d8b87	-0.74041027
62	0xbeba1a0c	-0.36347997
63	0xbf0c8ebf	-0.54905313
64	0x3edde8a2	0.43341547
65	0xbe4032e7	-0.18769418
66	0xbf133dc1	-0.57516104
67	0xbf0d55d2	-0.55209076
68	0x3d661af7	0.05617806
69	0xbd5485e6	-0.051885508
70	0xbe6501d9	-0.22363986
71	0x3e1ef32a	0.15522447
72	0xbea2a295	-0.31764665
73	0xbe47b9ca	-0.19504467
74	0xbea27e75	-0.31737104
75	0x3f032b35	0.51237804
76	0xbeb0c86f	-0.3452792
77	0xbd20a0d3	-0.039215874
78	0x3c965956	0.018353146
79	0xbf20544e	-0.6262864
80	0xbf3dfc33	-0.7421295
81	0xbee78319	-0.45217207
82	0xbe808bb2	-0.2510658
83	0xbf2189f9	-0.63101155
84	0xbf93420c	-1.1504531
85	0xbf145249	-0.5793806
86	0xbeedc6d2	-0.4644075
87	0x3ebd2d0c	0.3694843
88	0x3ec8f4f4	0.39249384
89	0xbe888955	-0.26667276
90	0x3e8e0dd8	0.27744937
91	0xbd4fc2ab	-0.05072276
92	0x3db42b0a	0.087972715
93	0xbee18b86	-0.4405176
94	0xbed57ed0	-0.41698313
95	0x3ed90eea	0.4239419
96	0xbea4d9d5	-0.32197443
97	0x3df6cdfd	0.12051008
98	0x3e46eaea	0.1942555
99	0xbe50dba8	-0.20396292
100	0x3ed5330e	0.41640514
101	0x3eeb912e	0.460092
102	0x3e836d26	0.2566921
103	0xbd98b588	-0.07456499
104	0xbf32aba7	-0.6979317
105	0xbe40d2b7	-0.18830381
106	0xbe06bcab	-0.13157909
107	0xbe8942a9	-0.2680867
108	0xbee8d2c6	-0.45473307
109	0xbee18e6a	-0.44053966
110	0xbe68ceb8	-0.22735107
111	0xbec73ed1	-0.38915113
112	0xbe45bf41	-0.19311239
113	0x3ddfa228	0.10919601
114	0xbef69d7c	-0.48167026
115	0x3eaa5c2f	0.33273456
116	0xbee7bfca	-0.4526351
117	0x3ebe6921	0.37189582
118	0xbeadba69	-0.33931282
119	0x3e85d2ff	0.2613754
120	0x3ec78ad7	0.38973114
121	0x3e2036ec	0.15645951
122	0x3c19ae26	0.009379899
123	0xbf1fb390	-0.62383366
124	0xbe934a39	-0.28767565
125	0x3eb9d79c	0.3629731
126	0xbe5b49c8	-0.21414864
127	0xbf184e84	-0.59494805
128	0xbe4708be	-0.19436929
129	0x3eb1a296	0.34694356
130	0xbf04b772	-0.51842415
131	0xbeda6ef5	-0.42662778
132	0x3ea6b126	0.3255703
133	0x3ebc6161	0.36793044
134	0xbed97efa	-0.42479688
135	0x3dd5f823	0.10447719
136	0xbed346a8	-0.41264844
137	0xbec9975f	-0.393733
138	0xbf270bd3	-0.6525242
139	0x3ed04502	0.4067765
140	0xbea7147e	-0.32632822
141	0xbe55a5f0	-0.20864081
142	0xbdcd0595	-0.1001083
143	0x3ec34724	0.38140213
144	0x3ebdbbc3	0.37057313
145	0x3ed481e2	0.41505343
146	0xbedc7587	-0.43058416
147	0xbdaf0f64	-0.085478574
148	0x3f0e028b	0.5547263
149	0xbefc4199	-0.49268797
150	0xbd8bd816	-0.068283245
151	0x3e84c60d	0.2593235
152	0x3e20adad	0.15691252
153	0xbe163df7	-0.14672075
154	0xbeeaedbd	-0.45884505
155	0x3eb48f45	0.35265556
156	0x3d1a15df	0.037618514
157	0xbec09b29	-0.37618378
158	0xbe65b9be	-0.22434136
159	0x3e91434a	0.2837165
160	0xbdbc179e	-0.09184192
161	0xbec12b52	-0.37728363
162	0xbe2bf085	-0.1679097
163	0xbf15a282	-0.5845109
164	0xbef8f422	-0.4862376
165	0xbdded3a3	-0.1088021
166	0xbe53d65c	-0.2068724
167	0x3eb181d0	0.34669352
168	0xbe477152	-0.19476822
169	0xbe04d4d3	-0.12971811
170	0x3e8602ed	0.26174107
171	0x3c509392	0.012730496
172	0xbe18bb5c	-0.14915222
173	0x3f00157b	0.50032777
174	0x3e9f8b73	0.3116108
175	0x3ec98ae6	0.39363784
176	0xbe3aa5a5	-0.18227251
177	0xbdc254be	-0.094888195
178	0x3e720ea3	0.23638396
179	0xbe85d409	-0.26138332
180	0xbec0bd7e	-0.3764457
181	0xbece24a1	-0.4026232
182	0xbe561284	-0.209055
183	0xbe4a41ce	-0.19751665
184	0xbeac9646	-0.337084
185	0xbf20c7b3	-0.62804717
186	0xbe877f83	-0.2646447
187	0xbec271dd	-0.37977496
188	0x3f02b706	0.5106052
189	0x3e363a6b	0.17795722
190	0xbe2d77bd	-0.16940208
191	0x3e227760	0.1586585
192	0x3ebfa712	0.37432152
193	0x3eb0849c	0.34476173
194	0x3e9a1730	0.30095816
195	0x3e825c66	0.2546112
196	0x3e8dc4ec	0.27689302
197	0x3b70641d	0.0036680766
198	0xbeeb23f4	-0.45925868
199	0xbe4c1e51	-0.1993344
200	0x3ebdc380	0.37063217
201	0xbd0157ca	-0.031577863
202	0x3ea014f1	0.31265977
203	0xbea1a972	-0.3157459
204	0xbee97d05	-0.45603195
205	0x3ea57ce1	0.32321838
206	0x3e9f22a7	0.31081125
207	0xbed3371a	-0.41252977
208	0xbe59dd34	-0.21275789
209	0xbec686f3	-0.38774833
210	0x3e8bdee9	0.27318504
211	0xbc63224d	-0.013863158
212	0xbe808357	-0.25100204
213	0xbd9f530b	-0.07779511
214	0x3e181981	0.14853479
215	0xbe2d8418	-0.16944921
216	0xbeee5ef7	-0.46556827
217	0xbef75a79	-0.48311213
218	0x3e86913b	0.26282677
219	0xbe9f29e9	-0.31086662
220	0x3d3c39d4	0.045953587
221	0x3e7446dc	0.23855156
222	0x3e93f52c	0.2889799
223	0xbe577325	-0.21040018
224	0x3e79c0f9	0.2439002
225	0x3ec211bd	0.37904158
226	0x3e86c42f	0.2632155
227	0xbdc609fa	-0.09669872
228	0xbe5099cf	-0.20371173
229	0xbed70663	-0.4199706
230	0xbe43aed5	-0.19109662
231	0x3eb5a3ca	0.35476524
232	0xbe640c8c	-0.22270411
233	0xbe980080	-0.2968788
234	0x3eb4d9e6	0.35322493
235	0x3e7319b4	0.23740274
236	0xbe9cec7b	-0.3064917
237	0x3e3db200	0.18524933
238	0xbea2a51e	-0.317666
239	0xbe239b44	-0.15977198
240	0xbe8a6126	-0.27027243
241	0x3c85148a	0.016245145
242	0xbe47f0e8	-0.19525492
243	0x3dae31bf	0.08505582
244	0xbe9b5e71	-0.3034549
245	0x3ea32df3	0.31870994
246	0xbd7f8951	-0.062386815
247	0xbed93b6e	-0.42428154
248	0x3bb6d724	0.005579846
249	0xbeb56a27	-0.3543255
250	0xbe0ea02c	-0.13928288
251	0x3eaabd46	0.3334753
252	0x3cc81306	0.024423134
253	0x3f0fa61c	0.5611284
254	0x3f07a72c	0.5298946
255	0xbee418b2	-0.4455009
